True
[Warning] Since Open3D 0.15, installing Open3D via conda is deprecated. Please re-install Open3D via: `pip install open3d -U`.
Folder removed.
New folder created.
----------------------------------------------------------------
        Layer (type)               Output Shape         Param #
================================================================
            Conv1d-1             [-1, 64, 1000]             256
       BatchNorm1d-2             [-1, 64, 1000]             128
            Conv1d-3            [-1, 128, 1000]           8,320
       BatchNorm1d-4            [-1, 128, 1000]             256
            Conv1d-5            [-1, 256, 1000]          33,024
       BatchNorm1d-6            [-1, 256, 1000]             512
            Conv1d-7            [-1, 512, 1000]         131,584
       BatchNorm1d-8            [-1, 512, 1000]           1,024
            Conv1d-9            [-1, 128, 1000]          65,664
      BatchNorm1d-10            [-1, 128, 1000]             256
           Linear-11                  [-1, 512]          66,048
           Linear-12                  [-1, 512]         262,656
           Linear-13                 [-1, 1024]         525,312
           Linear-14                [-1, 15000]      15,375,000
================================================================
Total params: 16,470,040
Trainable params: 16,470,040
Non-trainable params: 0
----------------------------------------------------------------
Input size (MB): 0.01
Forward/backward pass size (MB): 16.73
Params size (MB): 62.83
Estimated Total Size (MB): 79.57
----------------------------------------------------------------
