True
[Warning] Since Open3D 0.15, installing Open3D via conda is deprecated. Please re-install Open3D via: `pip install open3d -U`.
----------------------------------------------------------------
        Layer (type)               Output Shape         Param #
================================================================
            Conv1d-1             [-1, 64, 2000]             256
            Conv1d-2             [-1, 64, 2000]             256
       BatchNorm1d-3             [-1, 64, 2000]             128
       BatchNorm1d-4             [-1, 64, 2000]             128
            Conv1d-5            [-1, 128, 2000]           8,320
            Conv1d-6            [-1, 128, 2000]           8,320
       BatchNorm1d-7            [-1, 128, 2000]             256
       BatchNorm1d-8            [-1, 128, 2000]             256
            Conv1d-9            [-1, 256, 2000]          33,024
           Conv1d-10            [-1, 256, 2000]          33,024
      BatchNorm1d-11            [-1, 256, 2000]             512
      BatchNorm1d-12            [-1, 256, 2000]             512
           Conv1d-13            [-1, 512, 2000]         131,584
           Conv1d-14            [-1, 512, 2000]         131,584
      BatchNorm1d-15            [-1, 512, 2000]           1,024
      BatchNorm1d-16            [-1, 512, 2000]           1,024
           Conv1d-17            [-1, 128, 2000]          65,664
           Conv1d-18            [-1, 128, 2000]          65,664
      BatchNorm1d-19            [-1, 128, 2000]             256
      BatchNorm1d-20            [-1, 128, 2000]             256
           Linear-21                  [-1, 512]          66,048
           Linear-22                  [-1, 512]          66,048
           Linear-23                  [-1, 512]         262,656
           Linear-24                  [-1, 512]         262,656
           Linear-25                 [-1, 1024]         525,312
           Linear-26                 [-1, 1024]         525,312
           Linear-27                [-1, 15000]      15,375,000
           Linear-28                [-1, 15000]      15,375,000
     PointCloudAE-29              [-1, 5000, 3]               0
     PointCloudAE-30              [-1, 5000, 3]               0
================================================================
Total params: 32,940,080
Trainable params: 32,940,080
Non-trainable params: 0
----------------------------------------------------------------
Input size (MB): 0.02
Forward/backward pass size (MB): 66.90
Params size (MB): 125.66
Estimated Total Size (MB): 192.57
----------------------------------------------------------------
